cartpole.pth (torch, 5656 bytes, 4 tensors)

fc1.weight f4 [128, 4]
0	0x3ec904e6	0.3926155
1	0x3df0a426	0.11750059
2	0x3ed31bc8	0.41232133
3	0xbdb859b1	-0.09001482
4	0xbf6b9813	-0.9202892
5	0xbec9759c	-0.3934754
6	0xbeb5f997	-0.35541984
7	0x3dc9ca9e	0.09853099
8	0x3ebedecc	0.37279356
9	0xba3e2b67	-0.0007254392
10	0x3c08bbcf	0.008345558
11	0xbe9c46ee	-0.30522865
12	0xbef9dbe5	-0.4880058
13	0x3ea30426	0.31839103
14	0xbf51c004	-0.8193362
15	0x3e1bc8ed	0.15213366
16	0xbe2b2765	-0.16714247
17	0xbe249684	-0.16073042
18	0xbf2a09a7	-0.6642098
19	0xbe1bedf2	-0.15227488
20	0x3ddf2812	0.10896315
21	0x3e5c712c	0.21527547
22	0xbf4f057e	-0.80867755
23	0xbea658bf	-0.32489583
24	0xbeb4e24c	-0.353289
25	0x3d13e4c4	0.03610684
26	0xbf3c8ba9	-0.73650604
27	0xbcd8b58c	-0.026453756
28	0xbeeb213a	-0.45923787
29	0xbe85b8fe	-0.261177
30	0xbee0b512	-0.43888146
31	0xbdf2456b	-0.11829647
32	0xbebc4c84	-0.36777127
33	0xbf925564	-1.1432309
34	0xbf7c549b	-0.985666
35	0xbe1ef644	-0.1552363
36	0x3ec7308e	0.38904232
37	0xbf021d85	-0.50826293
38	0xbeb8eaba	-0.36116582
39	0xbf5fa4c0	-0.87360764
40	0x3e8aeacc	0.2713226
41	0x3f06de30	0.5268278
42	0xbf1452d8	-0.5793891
43	0xbf559bdc	-0.8344095
44	0xbf5c584a	-0.8607222
45	0xbeb71371	-0.3575702
46	0xbf1eede5	-0.6208175
47	0xbd3bb189	-0.045823608
48	0x3e3c4ec1	0.18389417
49	0xbe535450	-0.20637631
50	0xbf5644eb	-0.8369891
51	0xbf23afec	-0.6394031
52	0xbf3849e5	-0.71987754
53	0xbd3bf5fa	-0.04588888
54	0xbe533386	-0.20625123
55	0x3eed42f7	0.46340153
56	0x3e72966e	0.23690197
57	0x3f249d65	0.64302665
58	0xbea56b4f	-0.32308432
59	0x3eeec655	0.4663569
60	0xbe0bd0c0	-0.1365385
61	0xbe891e52	-0.26780945
62	0xbf3576ef	-0.70884603
63	0xbf119bce	-0.56878364
64	0x3d22d4ce	0.039753728
65	0xbd3bd139	-0.045853827
66	0x3ef6e73e	0.482233
67	0xbe8e46a2	-0.27788264
68	0xbe87c094	-0.26514113
69	0xbed09f8b	-0.40746722
70	0x3efb4b31	0.49080804
71	0xbeab8e14	-0.33506835
72	0x3f2ae156	0.66750085
73	0xbe153a45	-0.1457301
74	0x3e941e57	0.28929397
75	0xbda10ce8	-0.0786379
76	0xbe4d4e77	-0.20049463
77	0x3f0a6951	0.5406695
78	0xbe019a0a	-0.12656417
79	0xbf104ca8	-0.5636697
80	0x3e245962	0.16049722
81	0xbdb8499c	-0.08998415
82	0xbde2d7cc	-0.11076316
83	0x3dd83d82	0.10558607
84	0xbee606d0	-0.44927073
85	0x3eb13c4b	0.34616312
86	0x3f27c432	0.65533745
87	0x3f957992	1.1677725
88	0xbea1f93c	-0.31635463
89	0x3e92e000	0.28686523
90	0x3f7d5f3b	0.98973435
91	0x3ee7584e	0.4518456
92	0x3ddbb231	0.10727347
93	0xbe018799	-0.12649383
94	0xbfb04aad	-1.3772789
95	0xbfaf481b	-1.369388
96	0x3eb4c8e0	0.35309505
97	0xbe6636da	-0.22481862
98	0xbf1e47a9	-0.61828095
99	0xbead0527	-0.33792993
100	0xbd6c61dd	-0.057710517
101	0xbc8dd981	-0.017315628
102	0x3ef03610	0.46916246
103	0xbf0b970d	-0.5452736
104	0x3ed8f8dd	0.42377368
105	0xbdc34b11	-0.09535802
106	0xbef9984e	-0.48749012
107	0x3e0e637c	0.13905138
108	0xbf1967b7	-0.5992388
109	0xbf351f39	-0.70750767
110	0xbf93aeff	-1.153778
111	0xbf28bead	-0.6591595
112	0x3e44d80d	0.19223042
113	0xbdb38ab4	-0.0876669
114	0xbf02105c	-0.5080621
115	0xbe8241b9	-0.25440767
116	0x3cb85f57	0.0225064
117	0xbdf50c78	-0.11965269
118	0x3c1394fb	0.009007688
119	0xbe318708	-0.17336667
120	0x3c8184ab	0.015810331
121	0xbc06d2c3	-0.00822896
122	0x3ecaa4b1	0.39578775
123	0xbe9dfdea	-0.30857784
124	0x3e8d82f0	0.2763896
125	0xbc0e78e7	-0.008695818
126	0x3eef024f	0.4668145
127	0x3dd1bd9b	0.102412425
128	0xbe6a4226	-0.22876796
129	0xbde3fb20	-0.11131883
130	0xbfac692b	-1.3469595
131	0xbed9380f	-0.42425582
132	0x3e6c661f	0.23085831
133	0x3e74f245	0.23920543
134	0x3ecb5383	0.39712152
135	0x3f3d8125	0.74025184
136	0x3f48c2b8	0.7842212
137	0x3f1a7c39	0.603458
138	0x3f804f50	1.0024204
139	0x3eab6fe5	0.33483806
140	0x3e12286e	0.14273235
141	0xbe0993c2	-0.13435271
142	0xbd0c9e23	-0.0343305
143	0xbd1fbdb8	-0.03899929
144	0x3c254f35	0.010089685
145	0xbd96246b	-0.07331165
146	0x3eb3f6f4	0.35149348
147	0xbe028d38	-0.12749183
148	0xbf170c64	-0.5900328
149	0x3ce73b1a	0.028226424
150	0xbd500039	-0.050781462
151	0x3e63ebad	0.22257872
152	0x3dc0f31a	0.09421368
153	0xbc82455d	-0.015902216
154	0x3e804197	0.2505004
155	0x3db2841f	0.08716606
156	0x3ddef2a9	0.108861275
157	0x3ea89e14	0.32933104
158	0xbc050b08	-0.008120306
159	0xbe31782c	-0.17330998
160	0x3e58d6b9	0.2117566
161	0xbe842a43	-0.25813493
162	0x3ecdf91c	0.40229118
163	0xbec8380b	-0.39105257
164	0x3dd4dc72	0.10393609
165	0xbd927ddd	-0.07152913
166	0xbed186f5	-0.40923277
167	0xbd063ce5	-0.032772917
168	0xbdf1bece	-0.11803971
169	0xbf91a482	-1.1378329
170	0xbff3e736	-1.9054935
171	0x3d82d16f	0.063876025
172	0xbf0da904	-0.5533602
173	0x3cc8c0e9	0.02450605
174	0x3efee48c	0.49783742
175	0x3ef4cedd	0.47814074
176	0xbf2db7c0	-0.67858505
177	0xbf85c8f9	-1.0451957
178	0xbfe8945f	-1.8170279
179	0xbfa2df9e	-1.2724493
180	0x3da8362c	0.082134575
181	0x3e6fa2da	0.23401967
182	0x3f336858	0.7008109
183	0x3d928f51	0.07156242
184	0xbcf3bd1c	-0.02975326
185	0xbedb2d6f	-0.428081
186	0xbf422064	-0.75830674
187	0xbebd947e	-0.37027353
188	0x3d09e18d	0.033662368
189	0xbe503c05	-0.20335396
190	0x3e8f539e	0.27993482
191	0x3e2ce322	0.1688352
192	0x3d0f4cf6	0.034985505
193	0x3ea02f64	0.31286156
194	0xbf7fdec6	-0.999493
195	0xbf019397	-0.5061583
196	0x3ee28fd3	0.44250354
197	0x3e9cf9ee	0.3065943
198	0x3fa60e76	1.2973163
199	0x3ef0666a	0.46953136
200	0xbd9efc32	-0.07762946
201	0x3ee5f798	0.44915462
202	0x3e8170fe	0.2528152
203	0xbd6204dc	-0.055180416
204	0x3dc21886	0.09477334
205	0x3b326ddf	0.0027226133
206	0xbe88b373	-0.2669941
207	0x3e62181d	0.22079511
208	0x3dfc0434	0.12305489
209	0x3e4b1492	0.19832066
210	0xbec778c8	-0.38959336
211	0xbf715ff3	-0.9428703
212	0xbc81cc88	-0.015844598
213	0xbdb8f916	-0.09031884
214	0xbf024511	-0.50886637
215	0x3e850d39	0.2598665
216	0x3f145c1d	0.57953054
217	0xbb3f0ba7	-0.0029151232
218	0xbe9da174	-0.3078724
219	0xbe92cc09	-0.2867129
220	0xbecc1947	-0.39863035
221	0x3e3ddbfb	0.18540947
222	0xbe91b68c	-0.28459585
223	0xbe820bf2	-0.2539974
224	0x3e054f6c	0.13018578
225	0xbdd635ea	-0.10459502
226	0xbeda2f28	-0.42614102
227	0xbea9f69e	-0.33195966
228	0xbe8a29a2	-0.26984888
229	0x3e372bc9	0.17887796
230	0x3f677d36	0.9042543
231	0x3f5b9803	0.85778826
232	0x3f042e8e	0.51633537
233	0xbdf4fe0d	-0.11962519
234	0xbe9dab16	-0.3079459
235	0xbf06ff5e	-0.5273341
236	0x3e8babd8	0.27279544
237	0xbe069dbf	-0.13146113
238	0xbecbf51d	-0.39835444
239	0xbe6cc2eb	-0.2312123
240	0xbb0bc272	-0.0021325615
241	0x3d249cd7	0.040188637
242	0x3fb76a91	1.4329396
243	0x3f13adfa	0.5768734
244	0x3ec87fc7	0.39159986
245	0x3f49c3e0	0.78814507
246	0x3f20ee98	0.62864065
247	0x3ed1afa8	0.40954328
248	0xbe64753b	-0.22310345
249	0x3ea11fc4	0.31469548
250	0x3f8a8fbb	1.0825113
251	0x3ec497f7	0.3839719
252	0x3e89e402	0.2693177
253	0xbc2e7cf2	-0.0106499065
254	0xbec8e4e8	-0.39237142
255	0xbf251e1c	-0.6449907

fc1.bias f4 [128]
0	0x3e75e6c7	0.24013816
1	0xbd94fe4d	-0.072750665
2	0xbea17d1f	-0.31540772
3	0xbeb9543e	-0.36197084
4	0xbded8af8	-0.11598772
5	0x3d89366f	0.066998355
6	0xbe4b9a24	-0.19883019
7	0xbe059137	-0.13043676
8	0x3dbeb8ed	0.093126155
9	0x3e655e81	0.22399332
10	0x3e496136	0.1966599
11	0xbe890e01	-0.26768497
12	0xbd5f481c	-0.05451213
13	0x3e2ef2f9	0.17084874
14	0xbebe0b35	-0.37117925
15	0x3db0680f	0.086135976
16	0xbf078803	-0.5294191
17	0xbf050a45	-0.51968795
18	0xbeda1bba	-0.4259928
19	0xbd9609da	-0.07326098
20	0xbf18a31a	-0.59623873
21	0x3e5e22dc	0.21692985
22	0x3f4bc6e9	0.7960039
23	0x3effd6c6	0.49968547
24	0x3e8fbca0	0.28073597
25	0xbe752922	-0.23941472
26	0xbd9c4c37	-0.07631724
27	0x3d98deb1	0.0746435
28	0xbe893365	-0.26797023
29	0xbe5a9df8	-0.21349323
30	0xbeb1d4f5	-0.34732786
31	0xbc421186	-0.011844998
32	0x3e673cfe	0.2258186
33	0x3cdf4090	0.027252465
34	0x3ee898fb	0.45429215
35	0xbee1e72d	-0.44121686
36	0xbe96dc2d	-0.29464856
37	0xbe64ba4a	-0.22336689
38	0xbe43ec67	-0.19133149
39	0xbec3e188	-0.38258004
40	0xbefa29f8	-0.48860145
41	0xbe2b5bc3	-0.16734223
42	0x3ec0c8d9	0.37653235
43	0xbe40927e	-0.18805882
44	0x3eb22451	0.34793332
45	0x3f0173a6	0.5056709
46	0x3c2d47c1	0.0105761895
47	0x3d8984eb	0.06714805
48	0x3acc3e5e	0.0015582552
49	0x3f262d42	0.6491281
50	0x3eb796c5	0.35857216
51	0xbf1c66ce	-0.6109437
52	0xbcfa31dd	-0.030541355
53	0xbebed10b	-0.37268862
54	0xbccbd7be	-0.024883147
55	0xbf25e28b	-0.647988
56	0xbea7f691	-0.32805303
57	0x3e13a9b5	0.14420207
58	0xbc54cdd9	-0.012988531
59	0x3e6459b9	0.22299851
60	0x3f405df3	0.75143355
61	0x3d848a01	0.06471635
62	0x3cf7bc16	0.030241054
63	0x3e1b8554	0.1518758
64	0xbddd5450	-0.10807097
65	0x3e9c43b5	0.30520406
66	0xbb278c1b	-0.0025565687
67	0xbf3005a1	-0.6875859
68	0xbcf5dfb4	-0.030013897
69	0xbf308d0e	-0.6896523
70	0xbeb2dec3	-0.3493558
71	0x3d8a91cd	0.067660905
72	0xbec9bbe5	-0.39401165
73	0x3ec132ba	0.37734014
74	0xbf2d757e	-0.67757404
75	0x3ee238ec	0.44184053
76	0xbe5feec9	-0.21868433
77	0xbeeee390	-0.4665799
78	0xbde32834	-0.110916525
79	0xbcc1a81a	-0.023639727
80	0x3f1f66c1	0.62266165
81	0xbee90c16	-0.45517033
82	0xbf0f3d2a	-0.55952704
83	0xbe15e148	-0.14636719
84	0x3ea1fb77	0.31637165
85	0x3e905e30	0.2819686
86	0xbe23e20b	-0.16004197
87	0x3dbe80c4	0.09301904
88	0x3d95c32b	0.07312616
89	0xbef92a78	-0.48665214
90	0x3f3edefa	0.74558985
91	0x3ed97ea0	0.4247942
92	0x3db5a704	0.08869746
93	0xbf2c696e	-0.6734837
94	0xbbf0f718	-0.0073536746
95	0x3e8280ef	0.25488994
96	0xbef1172e	-0.47087997
97	0x3f410436	0.7539705
98	0xbd88e6d7	-0.06684654
99	0x3f2e29ec	0.6803272
100	0x3eb969f0	0.36213636
101	0x3edfe2c1	0.43727687
102	0x3e9ef30a	0.310448
103	0xbd8d8180	-0.06909466
104	0x3e7b3ede	0.245357
105	0xbe91d4b7	-0.284826
106	0x3e8aae63	0.27086172
107	0xbec372d1	-0.38173535
108	0x3e2319a9	0.15927757
109	0xbea8c3c0	-0.32961845
110	0xbec51a7b	-0.38496765
111	0x3eb66285	0.3562204
112	0x3d789c2b	0.06069581
113	0x3b1e348f	0.0024140214
114	0xbeb79fdc	-0.3586415
115	0xbe72aa7b	-0.23697846
116	0x3e6282b6	0.22120175
117	0xbc83f85e	-0.016109642
118	0xbed1412d	-0.40870038
119	0x3dbaadfa	0.09115215
120	0xbeed6a41	-0.46370128
121	0x3e914f6c	0.28380907
122	0x3e695a5b	0.22788374
123	0x3e8e0ead	0.27745572
124	0xbece6bd6	-0.40316647
125	0x3d882c48	0.06649071
126	0x3dd9dc64	0.10637739
127	0x3e7cc379	0.24683942

fc2.weight f4 [2, 128]
0	0xbd1e9937	-0.038720336
1	0x3f0fee34	0.56222844
2	0x3d77ec8d	0.060528327
3	0x3d74c040	0.059753656
4	0xbc5f44af	-0.013627215
5	0x3d857b2d	0.065176345
6	0x3db56ff6	0.088592455
7	0x3df9652c	0.121775
8	0x3f1a04e2	0.601637
9	0x3e77ac72	0.24186876
10	0x3ead97d9	0.33904913
11	0x3f0c8631	0.5489226
12	0x3d4b1a5c	0.049585685
13	0xbeeb7d45	-0.4599401
14	0x3e200754	0.15627795
15	0x3ded6762	0.11591984
16	0xbda2fb2d	-0.07958064
17	0xbe014d3a	-0.12627116
18	0x3dd58d12	0.10427298
19	0x3e76f7dc	0.24117988
20	0x3c08d15f	0.008350699
21	0xbee5caa1	-0.44881156
22	0xbed90120	-0.4238367
23	0x3efbe600	0.49198914
24	0x3e0ae706	0.13564691
25	0xbd48c69b	-0.04901753
26	0xbdcba5a8	-0.09943706
27	0x3ea18bae	0.3155188
28	0xbd3c11b7	-0.04591533
29	0xbcb72a4f	-0.022359041
30	0x3d123c9a	0.035702325
31	0xbd2d50c4	-0.042313352
32	0x3e8fb3bc	0.28066814
33	0xbe19934b	-0.14997594
34	0xbecb1998	-0.39667964
35	0x3cd8ee7f	0.026480911
36	0xbcd81803	-0.026378637
37	0x3df35ead	0.11883292
38	0x3c0bb021	0.008525879
39	0x3d3cbcf3	0.046078634
40	0x3dbdfb14	0.09276405
41	0xbc324de4	-0.010882828
42	0x3ee82d03	0.4534684
43	0xbd92c47f	-0.07166385
44	0x3f1dfd71	0.61714846
45	0xbe170587	-0.14748202
46	0x3e036651	0.12832
47	0x3c5841a4	0.013199244
48	0x3de94b71	0.113913424
49	0xbf0daf81	-0.5534592
50	0xbe18c69b	-0.14919512
51	0x3d93ffcf	0.07226526
52	0x3e203f4e	0.15649149
53	0x3d402014	0.046905592
54	0x3e4a097c	0.1973018
55	0x3c70fbb4	0.014708448
56	0xbd15a17c	-0.036530957
57	0xbe8ab62c	-0.2709211
58	0xbc8aae4b	-0.016928812
59	0xbd55e521	-0.052220467
60	0xbe83b0f1	-0.25720933
61	0xbea30fce	-0.31847996
62	0xbd0afe1c	-0.033933744
63	0x3e15ae40	0.14617252
64	0xbcc7eed3	-0.024405872
65	0xbd4bba55	-0.049738247
66	0x3cf1963d	0.029490585
67	0xbd51047d	-0.05102967
68	0xbd988177	-0.074465685
69	0xbbd35b26	-0.0064500747
70	0xbd7d5167	-0.06184521
71	0x3dfa2e7c	0.122158974
72	0xbd610f62	-0.05494631
73	0xbf305a54	-0.6888783
74	0xbaf8d9b0	-0.0018985774
75	0xbeaa4cb3	-0.33261642
76	0xbd67d081	-0.05659533
77	0xbbda7370	-0.0066665933
78	0x3d9844de	0.074350104
79	0xbc5e79fb	-0.013578887
80	0xbf4dfcc9	-0.80463845
81	0x3db0b688	0.08628565
82	0xbdbf5914	-0.09343162
83	0x3cd485b9	0.02594267
84	0xbebfbe46	-0.37449855
85	0xbeaa4bdc	-0.33261
86	0x3ec9c480	0.3940773
87	0x3e6fe721	0.23428012
88	0xbc394d94	-0.01131
89	0x3c82a6f2	0.015948746
90	0xbeb89ba8	-0.36056256
91	0xbebc0833	-0.36725006
92	0xbd68ed90	-0.056867182
93	0x3ddb948f	0.10721695
94	0x3d798fb4	0.06092806
95	0x3ec4accc	0.38413084
96	0x3e5592ee	0.2085683
97	0xbf1cde13	-0.6127636
98	0x3d938ac5	0.072042026
99	0x3ef65e6d	0.48118916
100	0xbed7fdc5	-0.42185798
101	0x3f263869	0.64929825
102	0xbed55a8b	-0.4167064
103	0x3ccfecdc	0.025381498
104	0xbe09df58	-0.13464105
105	0x3b91ef54	0.004453579
106	0x3d65ea32	0.05613155
107	0xbd8c1e0f	-0.06841671
108	0x3e0a0b58	0.1348089
109	0x3d187065	0.037216563
110	0x3e8c7708	0.27434564
111	0x3f1da512	0.6158
112	0xbe43742b	-0.19087283
113	0xbd367ae2	-0.044550784
114	0x3d4acf91	0.049514357
115	0x3e82bced	0.25534764
116	0xbe1e8a57	-0.1548246
117	0xbe163dca	-0.14672008
118	0x3e50f759	0.20406856
119	0x3ecd67de	0.40118307
120	0x3dc8c3d5	0.09802977
121	0xbd56366a	-0.052297987
122	0xbdd20d09	-0.102563925
123	0xbd898d7f	-0.06716441
124	0xbd91f5c4	-0.07126954
125	0x3d6539fd	0.055963505
126	0xbd5afd32	-0.053464122
127	0xbe35975b	-0.17733519
128	0x3e272097	0.16321026
129	0xbf114346	-0.56743276
130	0xbceacf65	-0.028663347
131	0xbe3c1f76	-0.18371376
132	0xbd8aaa40	-0.06770754
133	0xbe0e555d	-0.13899751
134	0xbcf6701a	-0.030082751
135	0xbe57cb40	-0.21073627
136	0xbf0d97fa	-0.5531002
137	0xbe5217d1	-0.20516898
138	0xbea56fb8	-0.32311797
139	0xbef72522	-0.48270518
140	0xbe192178	-0.14954174
141	0x3ed0562a	0.40690738
142	0xbde8cf70	-0.113676906
143	0xbdff31dd	-0.124606825
144	0x3d972fd5	0.0738217
145	0x3d71a34e	0.05899363
146	0xbdaa18f5	-0.083055414
147	0xbe563d8e	-0.20921919
148	0xbc5b537c	-0.013386603
149	0x3f0baceb	0.54560727
150	0x3e8cb99d	0.27485362
151	0xbf1d9029	-0.61548096
152	0xbe3e30b6	-0.18573269
153	0x3d71f44f	0.05907088
154	0x3d8282be	0.06372593
155	0xbed6e632	-0.419725
156	0xbd134c9c	-0.035961732
157	0xbd421ccb	-0.04739074
158	0xbcde8a88	-0.027165666
159	0x3d464647	0.048406865
160	0xbe4d0421	-0.20021106
161	0x3e0ffc82	0.14061168
162	0x3ed24875	0.41070905
163	0xbd834ec4	-0.06411508
164	0x3d26fd32	0.04076881
165	0xbe41caa2	-0.18924955
166	0xbde28342	-0.11060192
167	0xbc025843	-0.007955614
168	0x3cc3bc13	0.023893392
169	0x3ce91fc8	0.028457537
170	0xbee8cfe2	-0.45471102
171	0xbc88a0b7	-0.016678197
172	0xbf1c27dc	-0.6099832
173	0x3dd1215c	0.10211441
174	0xbd86d318	-0.06583232
175	0x3ba7f10f	0.005125172
176	0xbe2e74b3	-0.17036705
177	0x3ee78be7	0.45223925
178	0x3e0ab77b	0.13546555
179	0xbd4861b4	-0.048921302
180	0xbd9f30b8	-0.07772964
181	0x3c3642a8	0.0111242905
182	0xbdfc4549	-0.123179026
183	0x3d822622	0.063549295
184	0xbd9efba3	-0.0776284
185	0x3ea29be2	0.31759554
186	0x3cf7f66e	0.030268874
187	0xbd2bcf0f	-0.041945513
188	0x3ec7f02f	0.39050433
189	0x3e8e7b4e	0.2782845
190	0x3d0a5de3	0.033780944
191	0x3baaeece	0.005216456
192	0xbca5be0b	-0.020232221
193	0x3d6b3a06	0.057428382
194	0xbd07049c	-0.03296338
195	0x3cdc52c1	0.026894929
196	0x3c81a46f	0.015825478
197	0xbd1b1cee	-0.037869386
198	0x3dea5caf	0.11443459
199	0xbe2f97e2	-0.17147782
200	0x3d8477ed	0.064681865
201	0x3f1796f8	0.59214735
202	0x3d2ea48b	0.04263739
203	0x3ec9e352	0.39431244
204	0x3c7e3a03	0.015516761
205	0x3d39d350	0.04536754
206	0xbd43ce3a	-0.047804095
207	0xbdb2f524	-0.08738163
208	0x3f617f35	0.8808473
209	0xbc8ffdc6	-0.017577063
210	0x3dcbd4d7	0.09952705
211	0x3db9d0fb	0.09073063
212	0x3eca653d	0.39530364
213	0x3e98bcc2	0.2983151
214	0xbee0e4d8	-0.43924594
215	0xbe6010b7	-0.21881376
216	0xbc1529c5	-0.009104197
217	0x3ce6ad62	0.028158847
218	0x3ede9402	0.43472296
219	0x3eaa8763	0.33306417
220	0x3d8304d4	0.06397405
221	0xbe4e3722	-0.20138219
222	0xbc98da30	-0.018658727
223	0xbea008ef	-0.31256816
224	0xbe9d8702	-0.30767065
225	0x3f2e2dc2	0.6803857
226	0xbe020488	-0.12697041
227	0xbf1472d7	-0.5798773
228	0x3efb0ce3	0.4903327
229	0xbf1c4087	-0.6103596
230	0x3ee82c81	0.45346454
231	0xbd79992a	-0.060937084
232	0x3e16176a	0.1465737
233	0x3cf515c7	0.02991761
234	0xbde5d7ca	-0.11222799
235	0xbc2af461	-0.010434241
236	0xbddaf000	-0.106903076
237	0x3d77396e	0.060357504
238	0xbead1eb5	-0.3381249
239	0xbf1a5fd4	-0.6030247
240	0x3d41cd23	0.047314774
241	0xbc581581	-0.013188721
242	0xbdc14b4e	-0.09438191
243	0xbe016f74	-0.12640172
244	0x3dd6dbdc	0.104911536
245	0x3d567a9a	0.052363016
246	0xbdd868e6	-0.10566883
247	0xbe9b5a84	-0.30342495
248	0x3d258fac	0.04042022
249	0x3c2a27ef	0.0103854975
250	0x3c834bb4	0.016027309
251	0x3d02773b	0.03185199
252	0x3aaf73d4	0.001338596
253	0x3d0d0896	0.034432016
254	0x3d981d3e	0.074274525
255	0x3e64992e	0.22324058

fc2.bias f4 [2]
0	0xbbd43e73	-0.006477171
1	0x3d100b76	0.03516718
